p1_navigation/checkpoint.pth (torch_old, 28391 bytes, 6 tensors)

fc1.weight f4 [64, 37]
00000000: 0d73 a03d 78c5 42bd de7b 873d f010 5cbd
00000010: adec aebd 49fa 34bd 1176 d23d 0a54 cb3d
00000020: db94 533d 25fc 153a a4c0 b83e 1c46 01bf
00000030: 6cee 36bf bd9b 32bf dc4d 11c0 ec6f f83d
00000040: c7f3 b43d 3100 2f3d 6a12 973c 6830 03be
00000050: 657c f63d 5b2d 0b3e cd42 263d 2f3e 5f3e
00000060: 138f f03d 0dfa b13c 89e6 753c ccc2 2b3d
00000070: f442 cb3b 01e7 133c 3d8d 313d 3211 403d
00000080: bfa8 a53d 0c57 a93c e1fb e83d 68fe d93c
00000090: 1451 5bb7 290e fe3d 055c 633d a41f 253e
000000a0: 747f 50bd 66f3 23bf 018a ad3d f2c6 27be
000000b0: 9c8e 29bd 22bb ccbe faa5 a0be 5b54 2b3d
000000c0: d8a7 b93d db09 11be a94a 233e c279 be3e
000000d0: cd5a f33c 4854 f3bd 9350 f83d 04f4 3d3e
000000e0: 09bb 49be 41f7 31be 8cec dabd 4d1a 60be
000000f0: 049c 873e 0932 913c 205f af3d a2e7 bebd
00000100: c04f 203e c04a 81be 1102 af3d f8a8 79bd
00000110: 7b9f 5a3e eeac 6c3e 6fea 0b3c d7ba 193d
00000120: 149b 08bd 1271 7ebb 8b92 003e bee1 ad3e
00000130: 2274 a4bd d7d6 febe 0a5b a2be 3259 35bf
00000140: 37fb 863e 90f3 653e 4773 20bd 84ba c5be
00000150: 7bef 953c 62fa 8ebd a522 fbbd 6974 4dbe
00000160: 8636 8b3e a039 48be f7e3 86be ca28 953e
00000170: df59 a7bd b7bb 47bf 3943 eabd 8564 513e
00000180: 40e9 14be 6da9 71be c6e3 f7bc 7c9d 41bf
00000190: cbd5 cf3d e8b8 a73e 3562 b7be 77a9 5ebf
000001a0: 15f7 a5bd e50a 3bbe f695 5c3c 2abd 9fbe
000001b0: 8998 bb3d 9c3c 323e 74fb 30bc b757 053f
000001c0: 5299 ffbe d6f4 1abf 81c3 50bf 3fb7 11c0
000001d0: 39f9 34be f879 983d 633d db3d 3197 f83d
000001e0: c5d9 803e 80a9 633a b313 023d 9c1b 4fbd
000001f0: 7c17 073d 8f42 8a3d 748b b8bd 9897 be3c
00000200: 0d0c a73c a416 c6bd 01fa 44bd 2a66 c0bc
00000210: 20f3 a43d 6d63 8dbd c750 d13d 0bf2 f83c
00000220: 79c8 22bd 4a88 853d 8cd9 b33d 7856 653e
00000230: c757 0a3e e725 febd c633 b93d 6efa 0d3e
00000240: 2b48 c93d 7215 81bd 9185 243d 43bf 8cba
00000250: 2be3 e1bd 517a a9be 5e1d 293d 3e07 3dbe
00000260: 41fa 33bc eb9e 413d cb51 983e 30c5 40be
00000270: 712c 97be 00e8 22bf 8dd2 03bd 8fe8 06bd
00000280: 5b25 71be b7e7 5a3d 47a7 3abf 4a74 86bd
00000290: 14dc 97be aef1 4dbc a192 853d d623 673e
000002a0: bdd3 4b3d a661 dabb bb53 f8bd 1186 f43d
000002b0: 71e5 6f3e ef51 b73d 105e 26bd 05f4 4e3e
000002c0: d951 35bf adbd 83bf bb16 08be 1594 00bd
000002d0: 04b9 4d3e d06b 7f3e f42b 233e c7e4 3d3b
000002e0: 39e3 e33c d20f 0b3b f047 14bd d177 f53c
000002f0: caf4 293d 9ffd a93d 6f52 b13e 025d e7be
00000300: 56a5 43bf 4a50 e8be 4bf2 0ac0 fdcd e2bc
00000310: 7c3f 86bc f5a7 88bd 01b0 e13d 2f8e 873d
00000320: 2bd7 23bd 13b1 7b3d 20d1 3cbc c392 c73d
00000330: 6eed fc3d ef9b d53d 931c 623d 22d3 2d3e
00000340: edbf 3d3e add5 2f3e d81b 65bd 7901 a93d
00000350: 5607 b43d be3d 073e 631f 483e 53d3 aabc
00000360: 1840 043d 4f64 6a3d 8e72 d33d 9de9 263c
00000370: 3e0d 7bbd 3adf 973b c994 d83d 02b1 b6be
00000380: 3a87 cc3d 8865 3bbf 04e7 54bf a43b c8be
00000390: ac2f 75be bc16 6f3e 0103 05bf 2e0f 443e
000003a0: 7ca7 08bf 956b d33d 4ead 0abe 0c68 193e
000003b0: 0fae aabe 88d8 49bd 7e21 17be f68b 07bd
000003c0: ad4a a4be a00b 56bd 3e03 af3d 42b6 843e
000003d0: 15ef 9abe 7af6 0abf fbb0 6e3e 3528 20bf
000003e0: 8048 d63c 7e2c 4f3e 7f17 e9be 9915 343d
000003f0: 4f74 5abe f3ed 7abd e1a3 15bd d869 b1be
0.07834444 -0.047551602 0.06615423 -0.05372709 -0.08541236 -0.044184003 0.10276426 0.099281386
0.05165563 0.00057214714 0.36084473 -0.50497603 -0.7145755 -0.6976889 -2.2703772 0.121307224
0.08835559 0.042724792 0.018441398 -0.12811434 0.12035445 0.1359152 0.04059105 0.21801065
0.11746039 0.021725679 0.015008577 0.04193382 0.00620305 0.009027244 0.043347586 0.0468914
0.080888264 0.02067139 0.11376167 0.026610568 -1.3072295e-05 0.124050446 0.05550768 0.16125351
-0.0509028 -0.6404327 0.08473588 -0.16384485 -0.04139577 -0.3998652 -0.3137663 0.041828495
0.09065217 -0.14163916 0.1594645 0.3720227 0.029706383 -0.1188131 0.12124743 0.18550116
-0.19700254 -0.17379476 -0.10689649 -0.21885033 0.26486218 0.017724054 0.085630655 -0.09321524
0.15655422 -0.25252342 0.08545316 -0.060952157 0.213499 0.23112842 0.00853978 0.0375317
-0.03335102 -0.003882472 0.12555902 0.3396129 -0.08029963 -0.49773285 -0.31710082 -0.70839226
0.26363537 0.22456193 -0.039172437 -0.38618863 0.01830267 -0.069813505 -0.12262467 -0.20063938
0.27190036 -0.19553232 -0.26345798 0.29132682 -0.081714384 -0.78020805 -0.11438603 0.20448501
-0.14542103 -0.23599787 -0.030259978 -0.7563093 0.101482 0.3275826 -0.35817114 -0.8697733
-0.08103768 -0.18265875 0.013463488 -0.31199008 0.09159953 0.17405933 -0.010802139 0.5208697
-0.49921662 -0.6052984 -0.81548315 -2.2768095 -0.17673196 0.07445139 0.10705068 0.121382125
0.25166145 0.000868462 0.031757068 -0.05056344 0.03298138 0.06750976 -0.090109736 0.023265645
0.020391488 -0.09672287 -0.048089985 -0.023486216 0.08054185 -0.069037296 0.10220485 0.030388853
-0.039741967 0.06520136 0.08781728 0.22396266 0.13510047 -0.12409573 0.09043078 0.13865063
0.09828218 -0.063029185 0.04016644 -0.0010738153 -0.11029657 -0.33101133 0.041287772 -0.18459794
-0.010984958 0.047270697 0.29749903 -0.18825221 -0.29526094 -0.63635254 -0.03218322 -0.03293663
-0.23549406 0.053443637 -0.72911495 -0.06565149 -0.29660094 -0.012569828 0.06522108 0.22572264
0.049762476 -0.0066644726 -0.12125345 0.11939634 0.23427369 0.089511745 -0.04061705 0.20210274
-0.70828015 -1.029226 -0.13289921 -0.031391222 0.20090109 0.24943471 0.15934736 0.0028975473
0.02781831 0.0021219146 -0.036201417 0.02996436 0.041493215 0.083003275 0.34633204 -0.45188147
-0.7642416 -0.45373756 -2.1710384 -0.027686113 -0.016387694 -0.0667266 0.11019898 0.06618916
-0.040000122 0.061448168 -0.011524469 0.097447895 0.123499736 0.104301326 0.05520303 0.16975072
0.18530245 0.17171355 -0.055934757 0.08252234 0.08790462 0.13207147 0.19543223 -0.02085272
0.032287687 0.057224568 0.10324584 0.010187534 -0.061291926 0.004634765 0.105752535 -0.3568192
0.0998673 -0.732018 -0.83165 -0.39108002 -0.23943967 0.23348516 -0.5195771 0.19146416
-0.5338056 0.10323254 -0.13542673 0.14981097 -0.3333592 -0.049278766 -0.1475887 -0.03309246
-0.32088223 -0.05225718 0.0854554 0.25920302 -0.3026053 -0.54282343 0.233097 -0.6256135
0.026157618 0.20231816 -0.4552574 0.04396591 -0.2133343 -0.061262082 -0.03653324 -0.34651065

fc1.bias f4 [64]
00000000: b182 233e f7af 7dbd c197 b1bd b21c d43c
00000010: 3d70 513e e7dd 96bc 6dcb 26be da3c 663d
00000020: 7019 f53c 2f4d b4be 9a70 593e e8f8 3b3e
00000030: 3b48 e73d fbad 483e abc8 39be 6eb5 6dbd
00000040: ce1b fc3d 3e7b ce3d 7f16 5a3b a95d 8dbe
00000050: 2559 643d d90d 943c 01af 94bd 2306 bcbd
00000060: 4a2f 10be e393 a73e a6b9 cd3c 19f5 57bd
00000070: d4e5 0d3e 991a d43d d78e 82bd 51e5 e3bd
00000080: 6d2b 373e b180 0cbe de3e 27be 054d 3bbd
00000090: 0094 20be 4103 4c3b 31e9 a7bd c78d 58be
000000a0: aa6d 9fbd 4a15 8abd 0084 bc3c d8db ca3e
000000b0: ffd3 e7bd f004 53be f165 dfbd 70af 06be
000000c0: 39d2 50be dc37 063d 13eb 8cbe 94fa 55ba
000000d0: ef02 d8bc ac8f e03c f4a2 84be c410 2a3d
000000e0: 7033 b8bd 2f5c c3bd 21ba 9abd 7a95 2cbe
000000f0: 3f62 83bd ba19 623d 3015 a33c fd24 a6bd
0.15967824 -0.06193539 -0.08671523 0.02589259 0.20452972 -0.018416358 -0.16288538 0.056210376
0.029919356 -0.35215136 0.2123436 0.18356669 0.11293074 0.19597618 -0.18142955 -0.058034353
0.12309991 0.100821 0.003327757 -0.2761052 0.055749077 0.01807301 -0.07259942 -0.09180858
-0.1408054 0.32730016 0.025112938 -0.052723978 0.13857204 0.103566356 -0.06374901 -0.11127723
0.1788766 -0.13720967 -0.16332576 -0.04572775 -0.15681458 0.003112987 -0.081987746 -0.21147834
-0.07784589 -0.06742342 0.023012161 0.39620852 -0.11319732 -0.20607352 -0.10908116 -0.13152862
-0.20392694 0.032768115 -0.27523097 -0.0008162644 -0.026368586 0.027412258 -0.25905573 0.041519895
-0.08994186 -0.09539067 -0.075550325 -0.16853896 -0.06415223 0.055200316 0.019907564 -0.08112524

fc2.weight f4 [64, 64]
00000000: 1cfb 80bd 03fb 703d 97f7 0abe f2d3 6b3e
00000010: 54bc cb3d 1e13 0e3e 6aa6 86bc 84a7 bfbe
00000020: 36fc 34bd d099 e9bc 7818 15be 7b2d 663e
00000030: c872 2d3d c29b e33c 9f33 533d 926d 563c
00000040: 27b0 973d b0c5 d23d 5b23 8e3b f3c0 46be
00000050: 81bb 563e 9728 563c 60d3 b03d 1ead 04bf
00000060: d681 3abf cc1d 403e 6734 47bc 8a93 ed3d
00000070: 4305 5dbc 75ac debe ff3f 2b3e 9bb5 873e
00000080: a404 2abe eb22 c43e 968a 703e 6d09 bbbd
00000090: 6748 1a3e c5ad ebbc 68d2 7b3b c3e0 bebe
000000a0: 30a4 2cbf 3815 0b3e 3e11 1b3e bd47 76bd
000000b0: 2dc1 243e db3f 86be e861 bebc 64dc d23d
000000c0: 8e77 44be b99f 1b3e c541 a33e ec0f 44bd
000000d0: 70e2 983d 07fb a43d 911b a2bd cefb 8f3e
000000e0: a19b 8b3c c91d 78be 3832 073e 8173 4ebd
000000f0: d2be 9cbd 7268 973e ada2 4abe 9172 debd
00000100: ed23 84be cc21 b4bd d6c5 9cbe aecf b0bd
00000110: 1732 cd3d 3950 433e 3545 923e d48f b4bc
00000120: 1284 c8bd 42c2 ea3e 01c4 91bc 6492 743b
00000130: 9252 ce3d 150f efbc 8ab9 c63e 7c81 abbd
00000140: 5154 2b3e 09e0 0a3e 6fa6 92bd 2eb9 a83e
00000150: aa5b 1c3e 46a5 bdbe 2114 a6be 664d f13e
00000160: c09f 09bc 9c90 cd3d 1a6a a8be 4090 04be
00000170: bbce 1b3a 3032 c7bd 9970 35bd 9ab2 17bf
00000180: c9a9 26be 6816 d1be a44b 143d 2373 3a3e
00000190: af98 6abe 88b8 883d 0cf4 563e 8af1 cb3d
000001a0: 0b50 75bd 3cdb 923a 030c 13bd ccfa b2bd
000001b0: eac5 803e 1147 03be 9664 db3d 075f f4bd
000001c0: 53e2 fe3d 439a c5bd ce72 abbd e190 403e
000001d0: 35a4 2abe 6d44 0dbe a54c 3fbe 2945 d73c
000001e0: c2d6 d83e 37c9 00bd deb1 2e3e 8818 b8be
000001f0: 397f 9fbd a652 a23c 5980 edbc 1146 903b
00000200: 6713 e13d 2fe1 0bbd 4f4d 6d3e f08e e2bc
00000210: ca84 b2bc d445 38bd 1cfe d83e a69d d5bd
00000220: d48b c7bd dd7e 03bf 7560 e7bc eb05 37be
00000230: e1c0 3bbe 206b b23d df82 a2be 0928 6e3e
00000240: b5a3 98be 7d76 2cbe bd95 d5be 2c15 29bf
00000250: ba9a d9bd d2a9 2bbe f301 4abd 3a96 20bd
00000260: f62b 56bd 2b05 153d 7332 6fbe 1e58 a0be
00000270: b9da 1cbc 3877 00bd b5de 8f3e fd48 003e
00000280: c056 ebbd 28e3 093e 7095 ed3d 6439 593e
00000290: 34b5 953e 455b 1b3e a9b3 07be 8713 163d
000002a0: b249 833e 4d82 20be 8a4c b2bd b55a a1bd
000002b0: f7bd c1bd ccff a6be 7cea 023e db0b df3c
000002c0: d9e4 8dbe acf0 7dbe a724 bbbd 4722 2b3e
000002d0: 1a8c c33d 6ff2 093e 2603 c7be a10b 3abc
000002e0: 8806 3d3e 1786 23be 1cbe 003f 4ce8 9fbb
000002f0: cb09 8fbd 53b8 b4be 4aae 51be 969f 133c
00000300: 53e3 3d3f 6789 2c3d 191f 603d 0b97 27be
00000310: cb05 b73d 9fec 44be df29 413e 0ac7 b3bd
00000320: 1be0 7b3e bf24 c83e 6913 83bd 77d9 993e
00000330: c447 7abe a423 b43e 0cc7 44be b226 ef3d
00000340: 7a49 85be dadb a03d 2795 363e 3a77 fc3c
00000350: 707d 8dbe f727 3bbe 0801 05bc 11ba 343e
00000360: 45af aabe b417 34be ff04 acbe 57ac 5cbe
00000370: 1cee 17be 983a 0ebf 86f5 4cbe 2b71 523d
00000380: 4036 01be 3191 863e 1e2c 5d3e e381 ad3d
00000390: 8921 62be 7ed7 b8be fa2b d2bd 810b 81be
000003a0: 56cd abbe 39f5 b63c eebc 56bd b41d 0bbe
000003b0: e5b9 893e 4214 88bd ab27 a93c e758 77be
000003c0: a724 933d cc42 f9bd b171 02be 5f4f 4abe
000003d0: a243 833d 504e 6c3e ee76 493e e051 6c3e
000003e0: d9e1 93bd 3094 e2be 90d6 ccbe 800a 343d
000003f0: c6e4 333e 1574 8ebe b9c6 c5be 7e50 35be
-0.06297895 0.058833133 -0.1357101 0.2303007 0.0994803 0.1387448 -0.016436774 -0.37432492
-0.04418584 -0.028515726 -0.14560115 0.22478287 0.042345792 0.027784232 0.0515629 0.013087647
0.07406645 0.10291612 0.004337711 -0.19409542 0.20969965 0.013071201 0.086340666 -0.51826656
-0.72854364 0.18761367 -0.01215849 0.116004065 -0.013490024 -0.4349095 0.16723631 0.2650574
-0.16603333 0.3830789 0.23490366 -0.09132657 0.15066682 -0.028769383 0.0038424972 -0.37280855
-0.6743803 0.13582313 0.15143296 -0.06012701 0.16089316 -0.26220593 -0.023240045 0.102959424
-0.19186231 0.15197648 0.31886116 -0.047866747 0.074650645 0.08055692 -0.07915414 0.281218
0.017041983 -0.24230112 0.1320275 -0.05040312 -0.076535836 0.29571873 -0.19788618 -0.108616956
-0.2580866 -0.08795509 -0.30619687 -0.08633362 0.100193195 0.19073571 0.28568426 -0.022041239
-0.097908154 0.45851332 -0.017793657 0.00373187 0.10074343 -0.029181996 0.3881343 -0.083743066
0.16731383 0.13562025 -0.07160651 0.3295378 0.15269342 -0.37040156 -0.32437232 0.47129363
-0.008399904 0.10037348 -0.3289345 -0.12945652 0.0005943586 -0.097263694 -0.044296835 -0.592569
-0.16275705 -0.40837407 0.03620495 0.18207984 -0.22909807 0.066758215 0.20991534 0.09958179
-0.059890788 0.0011204253 -0.035900127 -0.08739242 0.25150996 -0.12820078 0.107125446 -0.119321875
0.12445512 -0.09648564 -0.08371507 0.18805267 -0.16664203 -0.13795634 -0.18681581 0.026278095
0.42351347 -0.031441893 0.17060038 -0.35956216 -0.07787938 0.0198148 -0.028991865 0.004402884
0.10990029 -0.0341503 0.23174022 -0.027656049 -0.021791834 -0.04498847 0.4238137 -0.1043046
-0.09743467 -0.51365453 -0.028244236 -0.17873351 -0.18335296 0.08711839 -0.31740472 0.2325746
-0.298124 -0.16842075 -0.41715804 -0.6604793 -0.10625215 -0.16764 -0.049318265 -0.039205767
-0.05228802 0.03638188 -0.23359089 -0.31317228 -0.009573632 -0.031363696 0.280996 0.12527843
-0.114911556 0.1346556 0.116007686 0.21213299 0.2923981 0.15171535 -0.13252129 0.036639716
0.25642163 -0.15674706 -0.08706005 -0.07878629 -0.09460061 -0.32617033 0.12784761 0.027227333
-0.2771366 -0.2479884 -0.0913785 0.16712295 0.095482066 0.13471387 -0.3886959 -0.011355312
0.18459523 -0.1596912 0.50290084 -0.004879987 -0.0698429 -0.35296878 -0.20476642 0.009010216
0.74174994 0.042123225 0.054717157 -0.16366212 0.08936652 -0.19230889 0.18863629 -0.08778198
0.24597208 0.39090535 -0.064001866 0.30048725 -0.24441439 0.35183442 -0.19216555 0.116773024
-0.2603262 0.07854433 0.17830335 0.03081857 -0.27634764 -0.18276964 -0.008117922 0.17649104
-0.33336845 -0.17587167 -0.33597562 -0.21550117 -0.14836925 -0.55558157 -0.20015535 0.051377457
-0.12618351 0.26282647 0.2159886 0.084720396 -0.22083105 -0.36101907 -0.10262294 -0.2520409
-0.33555096 0.022333728 -0.05242627 -0.1358555 0.2689964 -0.06644489 0.020648798 -0.24155007
0.07184725 -0.121709436 -0.12738682 -0.1975684 0.06409384 0.23076749 0.19674274 0.23078108
-0.072208114 -0.44253683 -0.40007448 0.043955326 0.17567739 -0.2782294 -0.38628176 -0.17706487

fc2.bias f4 [64]
00000000: 1f87 103e e89a 2c3e d305 813d 9bba ac3c
00000010: b423 f03d 39b3 c7be 9f69 64be a3b5 09be
00000020: e48c bb3e 96bf 473f dcb6 fa3c 02be 3b3e
00000030: bb2d 1c3f b025 ccbd 7b68 abbd 878d 9abd
00000040: 000b 603e 2875 22be 4c02 d4bc 8dca 393f
00000050: 5672 003f 128c 253f 29be e2bd 0051 9abe
00000060: e5ae 0d3c 42c5 5cbe 635d 613e 022c 593c
00000070: aa14 ac3d db5e e63e 2c88 42be f21d 9f3e
00000080: f37b 26bd 5a42 043d 3095 0d3f 948a 85bd
00000090: ae44 f7bd ac34 6dbe 276c f73e 97a1 90bd
000000a0: b9ec 56bd 8fb9 543f 0a03 303f f881 2cbe
000000b0: f65c 463e f3e7 b2be 6252 203f 9d81 36be
000000c0: 3dd7 cb3e 9466 1d3e 99b8 afbe 2ab1 a83e
000000d0: 2917 33be 448c bdbd 1ddf 963e e57c adbc
000000e0: 7f6e 80be 5dce b6be ceab 933c e292 a7bd
000000f0: b672 b73d 5c4d 1c3f cc62 8a3d 3132 1f3e
0.14114045 0.16855967 0.06299939 0.021085074 0.1172556 -0.39003924 -0.22305916 -0.13448195
0.3663093 0.7802671 0.030604772 0.18334201 0.6100728 -0.09968126 -0.083695374 -0.075465254
0.21879196 -0.15865004 -0.025880001 0.7257469 0.5017446 0.64666855 -0.110714264 -0.30139923
0.008647655 -0.21559623 0.2200828 0.013255121 0.08402379 0.44994244 -0.18997258 0.31077534
-0.04064555 0.03228984 0.5530577 -0.06520572 -0.120736465 -0.23164624 0.483247 -0.07062071
-0.05247185 0.8309564 0.6875464 -0.16846454 0.193714 -0.34942588 0.62625706 -0.17822881
0.3981265 0.15371162 -0.34320524 0.32947665 -0.17489304 -0.09255269 0.29467097 -0.021177718
-0.25084302 -0.35704318 0.018026259 -0.081823125 0.08957426 0.6105554 0.06757125 0.1554649

fc3.weight f4 [4, 64]
00000000: a9f6 293e 4e24 033d 4efe ecbd 9fc6 e83e
00000010: b4b2 dc3e ef99 a0be 0ece cfbd c74c 43be
00000020: fd15 873c ca82 5d3e 325f 1c3e 3a0a 583e
00000030: 5fe9 173e f0f5 a33c 1763 843d 9498 24be
00000040: 205d cc3e 670b cbbe 76e6 003c 0c64 8f3e
00000050: 3ff6 293e bd7e 9b3e dea6 c8bc 5130 87be
00000060: d004 c63e 9575 9abe 0a1c 3f3c 9c03 533e
00000070: 34ca fa3b d8f2 003e 60a9 a1be 8945 9a3d
00000080: e865 e13b fee5 ea3d 6b9f 3e3e 6ab3 913d
00000090: 62ef e33e 17cd f4bd 324c 4a3e f651 d13d
000000a0: f7d9 053e 1731 643e 5556 4c3e 4424 f83d
000000b0: f839 633e 2a53 92be a236 5d3e 41ed 943e
000000c0: 5a4f 803e 98b5 443e 168d 3ebe d403 ad3e
000000d0: 9c31 a93e e5e0 e8be db91 893d f666 2a3b
000000e0: 9ea1 d3be 6553 6dbe a9d2 993d ead2 79be
000000f0: e852 1fbf 9742 4a3e d1c1 d7bd 2e54 993e
00000100: 4b51 7c3e c061 87be 06b3 1f3e 71a6 9d3e
00000110: 9a06 653e eddd 92be 8414 623d 338c 20bd
00000120: 6529 783e 9b45 583e 009c 373d a079 d13d
00000130: c217 5f3e d071 813d ff6b 553d 5071 9d3e
00000140: 54c2 cb3e 6c1c d63d 0cef 5b3e e75b 303e
00000150: 4142 053e 4b84 a13e 05fd ce3c a904 6ebe
00000160: 9317 923e 2372 6e3e 535c 95bc b3b7 cd3e
00000170: 9185 163e e8a6 953e ab9a 44be fe97 9b3e
00000180: 27c7 6b3e 1516 b33d d314 823e 1e35 6d3e
00000190: c2f6 c63e 4183 0dbe a832 3e3e b1ac b23e
000001a0: 8cbc f4bb b808 533e d977 243e b266 623d
000001b0: c622 813e 5434 5dba cf3e 473e f4dd cf3e
000001c0: 0f47 593d f634 883e 9554 8bbe 4f1c da3e
000001d0: 4e6e c13d afc9 413d 3690 3f3e 4e47 e3bd
000001e0: f991 8ebe d2cc 75be a0b2 a03c d475 57be
000001f0: 2e11 523e e639 473e 0765 863d 98f2 b13e
00000200: 2f3a 993e 1de9 703d e1bf 953e 71d3 0f3f
00000210: 668c b93e dbce e8be 49f4 263e cd78 803d
00000220: 3455 aebb 5e9c 773e 7f0e 1c3e 782a 0c3f
00000230: fb8a 8a3e 5c17 ccbe e417 13bf 7fc6 f63d
00000240: c305 333e dfa2 96be b5f1 35bf 1f01 163e
00000250: b9f8 5a3d ad55 a33e b88b f2be 8c78 d4bd
00000260: 3cfd 443e dd65 0d3e 67b7 843e e9ce 44be
00000270: e211 e13c b075 823e 1212 c9bd 8533 ae3b
00000280: 91eb 5ebe de7e ac3d 794a 773e df8d a93e
00000290: 3d7f 553e a63b babe aa59 893e 3985 a8bd
000002a0: e6fc ed3d 89d1 7a3e e66c 5b3e 234b 18be
000002b0: e3a3 2b3d e2db 5ebe 0b81 6e3e 86ae ae3e
000002c0: 4ea3 aa3d 75d0 87bc 30fe debc f81c f03d
000002d0: 0396 c4be 8c72 b53e ff8d 803e 806f 573e
000002e0: 57f8 f8be 3a09 d4bd 5fc4 653e 1f1b 533e
000002f0: 0f70 1ebe ecff 6c3e 97df 863e c97e b2bc
00000300: 733c bb3c 3877 573e 4d60 8bb9 6b9f 87be
00000310: fd8b 333d 17e9 503b 1e44 e3bd e22d 21be
00000320: 9e9e 353e c015 8a3e 9612 083f 9e4c 5a3e
00000330: 4905 783e 8277 bebe c318 843e b1cd 7a3e
00000340: 31a2 433e a128 f53d b0da 723e 7b02 693e
00000350: 990b cb3d 3518 bb3e e997 a3be 2d1c 22be
00000360: daed 1a3e fb28 1b3a 7da7 0b3e 93dd 2f3e
00000370: 848a 283e 39ae fa3c aff2 01be c642 8d3d
00000380: 8f1f d63e 33f8 713e 2511 843d 22a3 8a3e
00000390: afb1 9fbe 4580 93bd 714a 9e3e 93f6 36be
000003a0: cbe2 d43e d6f0 9e3e 9da1 793e a194 37be
000003b0: b4a7 923e 8f30 bebe 9c0b 553e bf29 d63d
000003c0: 5607 d43d 3621 d3bd cc17 1abe 3092 453d
000003d0: 8804 31bc 1983 82bd 2a67 e43d bb91 793e
000003e0: 8ac8 35bf 201f 85be d261 b1be 6638 51be
000003f0: 05ab d4be 9cf6 f13d 08d4 9fbe 8833 2c3e
0.16598 0.032017045 -0.11571942 0.45464036 0.4310509 -0.31367442 -0.10146724 -0.19072257
0.016489977 0.21631923 0.15270689 0.21097651 0.14835118 0.020014733 0.064642124 -0.16073829
0.399148 -0.39657137 0.007867446 0.28006017 0.16597842 0.3037013 -0.024493631 -0.2640405
0.38675547 -0.30167833 0.0116644 0.20606846 0.007653499 0.12592638 -0.31574535 0.07532794
0.0068786032 0.11469649 0.186155 0.07114299 0.44518572 -0.1195318 0.19755629 0.10220711
0.13071428 0.22284351 0.19954808 0.12116292 0.22190082 -0.28579074 0.21602872 0.2908726
0.2506054 0.19209898 -0.18608508 0.33791983 0.3304566 -0.4548408 0.06717273 0.002600131
-0.41334242 -0.23176344 0.07510883 -0.24396864 -0.6223588 0.19751965 -0.105350144 0.29947037
0.24640386 -0.26441765 0.15595636 0.30791047 0.223658 -0.2868494 0.055195346 -0.039196204
0.24234541 0.21120302 0.044826508 0.10228276 0.21786407 0.06320536 0.052104946 0.30750513
0.39796698 0.1045464 0.21477908 0.17222558 0.13013555 0.31546244 0.025267133 -0.23243965
0.2853361 0.23285727 -0.0182325 0.40179214 0.14699389 0.29228902 -0.19199626 0.30389398
0.2302519 0.08744446 0.25406513 0.23164794 0.38860136 -0.138196 0.18574011 0.34897378
-0.0074687656 0.20608795 0.16061343 0.05527372 0.25221843 -0.00084382785 0.19457553 0.40599024
0.053046282 0.26602906 -0.27212968 0.42599723 0.09444867 0.04731148 0.18707356 -0.11097585
-0.27845743 -0.24003914 0.019616425 -0.21041042 0.20514366 0.1945568 0.06562238 0.34755397
0.29927203 0.058816064 0.29247954 0.5618201 0.36239928 -0.45470318 0.16304125 0.06273041
-0.0053202156 0.24180743 0.15239905 0.547523 0.2705916 -0.39861572 -0.5745833 0.12049579
0.17482667 -0.29421136 -0.7107194 0.14648865 0.053459857 0.31901303 -0.47372222 -0.10374555
0.19237226 0.13808389 0.25921175 -0.19219555 0.027474348 0.25480413 -0.098179 0.0053162
-0.21769549 0.084226355 0.24149503 0.33116052 0.20849319 -0.36373633 0.2682622 -0.08228535
0.11620502 0.24493994 0.2142826 -0.14872412 0.04190434 -0.21763566 0.23291413 0.34117526
0.08331929 -0.016578892 -0.027220815 0.11724275 -0.383957 0.35438955 0.25108334 0.21038628
-0.48626968 -0.10353322 0.22438191 0.20615815 -0.15472434 0.23144501 0.2634246 -0.021788971
0.022855973 0.21041572 -0.00026583896 -0.26488814 0.043834675 0.0031877214 -0.11096977 -0.15740159
0.17736289 0.2696972 0.5315336 0.2131829 0.24220766 -0.37200552 0.25800142 0.24492528
0.1910484 0.1197064 0.23716235 0.22754852 0.099143215 0.36541906 -0.31951836 -0.1583106
0.15129796 0.00059188873 0.1363811 0.17174368 0.1645909 0.030600654 -0.12690233 0.06897502
0.41820952 0.23629837 0.064485826 0.27077585 -0.3119025 -0.072022 0.3091617 -0.17867498
0.4157928 0.31043118 0.24378057 -0.17927791 0.28643572 -0.37146422 0.2080521 0.10457181
0.10352962 -0.10309069 -0.1504814 0.04823512 -0.010804303 -0.06372661 0.111524895 0.24371998
-0.71009123 -0.2600031 -0.34644943 -0.2043167 -0.41536728 0.11814615 -0.31216455 0.16816533

fc3.bias f4 [4]
00000000: e2aa 203f 0051 e33e 7ad9 bf3e df19 d93e
0.62760746 0.44397736 0.3747061 0.4240255
